…
conv2d_48 (3, 3, 512, 512) (None, 7, 7, 512)
conv2d_49 (1, 1, 512, 2048) (None, 7, 7, 2048)
conv2d_50 (1, 1, 2048, 512) (None, 7, 7, 512)
conv2d_51 (3, 3, 512, 512) (None, 7, 7, 512)
conv2d_52 (1, 1, 512, 2048) (None, 7, 7, 2048)
Model: "model"
_________________________________________________________________
Layer (type)                 Output Shape              Param #   
=================================================================
input_1 (InputLayer)         [(None, 200, 200, 3)]     0         
_________________________________________________________________
zero_padding2d (ZeroPadding2 (None, 206, 206, 3)       0         
_________________________________________________________________
conv2d (Conv2D)              (None, 100, 100, 64)      9472      
_________________________________________________________________
batch_normalization (BatchNo (None, 100, 100, 64)      256       
_________________________________________________________________
activation (Activation)      (None, 100, 100, 64)      0         
_________________________________________________________________
max_pooling2d (MaxPooling2D) (None, 49, 49, 64)        0         
_________________________________________________________________
conv2d_1 (Conv2D)            (None, 49, 49, 64)        4160      
_________________________________________________________________
batch_normalization_1 (Batch (None, 49, 49, 64)        256       
_________________________________________________________________
activation_1 (Activation)    (None, 49, 49, 64)        0         
_________________________________________________________________
conv2d_2 (Conv2D)            (None, 49, 49, 64)        36928     
=================================================================
Total params: 51,072
Trainable params: 50,816
Non-trainable params: 256
_________________________________________________________________
rotations-png/test/sdss_ra=49.9635_dec=41.535_rot30_label=1.png
